best_model.pt (torch, 2728 bytes, 3 tensors)

conv1.bias f4 [32]
00000000: fe8b a8bd 0000 0000 4c9c cf3e 32b6 0aba
00000010: b56d 8b3e 0000 0000 5b39 49bd 669b d4bd
00000020: 9de6 0ebe 0000 0000 bf9f bb3e 2451 7bbe
00000030: 93f2 8b3e 8daf 90be 0000 0000 61e2 f1bc
00000040: b2fd 5abe 0edc 943e 483a ae3e 1571 ec3e
00000050: 0000 0000 73cd e9bd 3515 8e3e 0000 0000
00000060: 61c7 f7bd 93d0 36be 0000 0000 2f68 66bd
00000070: d95c ecbb 0000 0000 2c28 a43e 0cc6 21ba
-0.082298264 0.0 0.40548933 -0.00052914314 0.27232137 0.0 -0.049126964 -0.103812024
-0.1395516 0.0 0.36645314 -0.24542671 0.27333507 -0.28258935 0.0 -0.029526891
-0.2138584 0.29074138 0.3402884 0.46180025 0.0 -0.114161395 0.27750555 0.0
-0.120985754 -0.17853002 0.0 -0.0562517 -0.0072132167 0.0 0.320619 -0.0006171174

conv1.lin.weight f4 [32, 2]
00000000: 5ea3 abbc f302 0e3e 1e36 53be 34f8 e8bd
00000010: d97f 93be af0d 8a3d 2d64 a4be 0488 f13d
00000020: f4ad 883e 00b2 c03e fe50 63be d09d 61bd
00000030: a53b 7dbe 5295 863e 1a01 88be c300 d73e
00000040: ac5d 8a3e 8717 1a3d b084 f2bd 1833 d1be
00000050: c639 febd f46b c63d 9ee7 383e 2674 a5bb
00000060: ae50 353e d2ed 033d 4809 3d3e 40c8 f7bd
00000070: 1415 bbbd 74e1 a9be 56cb 583c 5943 b6be
00000080: ba77 bb3e 13a2 bbbe 9915 ae3d 867a d0bc
00000090: b9f9 3a3e 421f e3be 0c69 8f3e b8b4 9fbe
000000a0: 4cfd 99bd a044 44bd fd98 fa3d cf31 313e
000000b0: 6369 883e 88f2 1bbe 251c 65be 8010 e3bc
000000c0: a07f 7b3e b5bf 383d 5280 803e 0525 ba3e
000000d0: 806d 8cbc 3ec0 00be 4eef 89be f59d a33e
000000e0: 1eaa 5fbb f024 a7be 184e e1bd f015 1fbd
000000f0: 61d0 26be 3b8a 1d3e 8e32 afbe f337 b33d
-0.020951923 0.13868313 -0.20626113 -0.11375466 -0.28808478 0.06740891 -0.32107678 0.11793521
0.26695216 0.37635803 -0.22198865 -0.055082142 -0.24729784 0.26285797 -0.2656334 0.4199277
0.2702459 0.037620094 -0.118417144 -0.40859294 -0.12413363 0.09688559 0.18057105 -0.0050492464
0.17706558 0.032209225 0.18460572 -0.120987415 -0.0913488 -0.3317982 0.013232073 -0.35598257
0.36614782 -0.3664709 0.08500213 -0.025449049 0.18259324 -0.44359785 0.28009832 -0.31192565
-0.07519016 -0.04791701 0.122362114 0.17304157 0.26642904 -0.15229237 -0.22374018 -0.027717829
0.24560404 0.0451047 0.250979 0.3635637 -0.017142057 -0.12573335 -0.26940387 0.3195645
-0.0034128497 -0.3264537 -0.11001223 -0.03883928 -0.16290428 0.15384762 -0.34218258 0.08750906

conv2.lin.weight f4 [1, 32]
00000000: 4f11 b23e 90fc 833d 6166 77be 039e b03d
00000010: 7c37 97be 6286 cb3e 4cb3 f13d 1c40 1c3d
00000020: c7cd f43d 2af0 06be 7a7a 66be 689a 613e
00000030: 1099 10be c238 253e 40a3 993d 78bd c13d
00000040: 031f c13e 2fb0 a0be 0a76 12bf 8b3e 9dbe
00000050: 6059 efbd 36a2 113e dace 6dbe 60ec 9c3e
00000060: c249 323e a1f1 6a3d c4fe 7a3e 0938 d13d
00000070: d73d 9f3e 801e 0b3e 50b0 c7be 6856 c63e
0.3477883 0.06444657 -0.24160148 0.08623888 -0.2953452 0.39750963 0.11801776 0.038147077
0.119533114 -0.13177553 -0.22507659 0.22031558 -0.14120889 0.16134933 0.075018406 0.094599664
0.37718973 -0.31384417 -0.57211363 -0.3071178 -0.11686969 0.14222035 -0.23223439 0.3064909
0.17410949 0.05735934 0.24511248 0.10215766 0.31101868 0.13585854 -0.39001703 0.38737798
