density_estimator.pth (torch, 667864 bytes, 63 tensors)

net._transform._transforms.1.autoregressive_net.initial_layer.weight f4 [64, 1]
-0.49600172 -0.037951946 0.61301565 0.6547357 -0.95524716 -0.50955904 0.93519425 0.025481343
0.67815435 -0.084863186 -0.773103 -0.77774143 0.9665164 -0.89380383 -0.5026952 -0.3025968
0.08131552 -0.80675805 -0.8707117 -0.5111095 0.31739223 -0.22519648 0.36484873 0.2661965
0.50599897 0.43877482 0.91570127 0.66845787 -0.47110975 -0.5676708 0.1646967 -0.060359
0.40688002 0.27337933 -0.9334899 0.5723201 -0.32112622 -0.96728754 0.1482544 0.78706336
-0.72748923 -0.45194793 0.6817694 0.8270372 0.21384835 0.86013603 -0.8134347 0.9977596
-0.30758 0.048659325 -0.19987476 0.5577408 -0.8132541 -0.96153486 0.17035949 0.7835387
-0.77042484 0.2054013 -0.2758286 0.6405201 -0.3832897 -0.35159826 -0.8554685 0.48708105
00000000: f0f3 fdbe 8073 1bbd 98ee 1c3f c29c 273f
00000010: 148b 74bf 7672 02bf e468 6f3f 40be d03c
00000020: 869b 2d3f c0cc adbd 14ea 45bf 101a 47bf
00000030: 9e6d 773f 54d0 64bf a2b0 00bf f8ed 9abe
00000040: c088 a63d b287 4ebf f6e6 5ebf 12d8 02bf
00000050: 3c81 a23e e899 66be 74cd ba3e e84a 883e
00000060: 2689 013f 18a7 e03e 666b 6a3f 0e20 2b3f
00000070: 4c35 f1be e052 11bf 40a6 283e 003b 77bd
00000080: 9452 d03e 60f8 8b3e 32f9 6ebf 9283 123f
00000090: a86a a4be 28a0 77bf 00d0 173e fc7c 493f
000000a0: bc3c 3abf b865 e7be 7088 2e3f b6b8 533f
000000b0: 10fb 5a3e e031 5c3f 423d 50bf 2c6d 7f3f
000000c0: 207b 9dbe 004f 473d f8ab 4cbe 1ac8 0e3f
000000d0: 6c31 50bf 2627 76bf b872 2e3e fe95 483f
000000e0: 903a 45bf b854 523e 6839 8dbe 20f9 233f
000000f0: 8c3e c4be b004 b4be fcff 5abf b062 f93e

net._transform._transforms.1.autoregressive_net.initial_layer.bias f4 [64]
0.7203627 0.185092 0.94510543 -0.51216257 0.86150134 0.43019572 -0.8605801 0.44893333
0.25365126 0.5381327 -0.92761964 -0.6731924 0.74995583 0.7519545 0.9025933 -0.15261725
0.56920534 -0.031974584 -0.761801 -0.28539196 0.85867167 0.04744178 -0.016202552 0.66592044
0.9756021 -0.51204777 0.96801555 0.59456694 -0.7840458 -0.841069 -0.5207595 0.056209676
0.012540666 0.7656272 -0.67369616 -0.42352366 -0.88287604 -0.6035908 0.32516205 0.6176495
-0.8241006 -0.55054635 0.15965472 -0.028058995 -0.43804842 -0.47011 0.74227136 0.9032651
-0.97189176 -0.85587484 0.41290393 0.88201576 0.48641342 0.32836798 0.7456842 0.19912566
0.6125964 0.18350734 -0.44471666 0.22661492 -0.8083374 0.68805075 0.016122865 0.60816044
00000000: b169 383f c288 3d3e 6ef2 713f 161d 03bf
00000010: 5a8b 5c3f 9d42 dc3e fa4e 5cbf 97da e53e
00000020: 94de 813e 11c3 093f 7b78 6dbf 5656 2cbf
00000030: 1bfd 3f3f 1780 403f 5b10 673f b247 1cbe
00000040: 71b7 113f c8f7 02bd 6405 43bf e51e 92be
00000050: e8d1 5b3f 5052 423d 37bb 84bc c379 2a3f
00000060: 0fc1 793f 9015 03bf decf 773f 8a35 183f
00000070: 3ab7 48bf 4c50 57bf 7f50 05bf 1e3c 663d
00000080: 5e77 4d3c 2500 443f 5a77 2cbf 18d8 d8be
00000090: 2a04 62bf ed84 1abf a47b a63e 471e 1e3f
000000a0: 42f8 52bf 9bf0 0cbf 877c 233e fadb e5bc
000000b0: e247 e0be 42b2 f0be 7f05 3e3f 623c 673f
000000c0: e6cd 78bf 9d1a 5bbf 2568 d33e c9cb 613f
000000d0: 2e0b f93e d91f a83e 29e5 3e3f 99e7 4b3e
000000e0: 1ed3 1c3f 59e9 3b3e e7b1 e3be be0d 683e
000000f0: 33ef 4ebf 1824 303f 1914 843c 67b0 1b3f

net._transform._transforms.1.autoregressive_net.initial_layer.mask f4 [64, 1]
0.0 0.0 0.0 0.0 0.0 0.0 0.0 0.0
0.0 0.0 0.0 0.0 0.0 0.0 0.0 0.0
0.0 0.0 0.0 0.0 0.0 0.0 0.0 0.0
0.0 0.0 0.0 0.0 0.0 0.0 0.0 0.0
0.0 0.0 0.0 0.0 0.0 0.0 0.0 0.0
0.0 0.0 0.0 0.0 0.0 0.0 0.0 0.0
0.0 0.0 0.0 0.0 0.0 0.0 0.0 0.0
0.0 0.0 0.0 0.0 0.0 0.0 0.0 0.0
00000000: 0000 0000 0000 0000 0000 0000 0000 0000
00000010: 0000 0000 0000 0000 0000 0000 0000 0000
00000020: 0000 0000 0000 0000 0000 0000 0000 0000
00000030: 0000 0000 0000 0000 0000 0000 0000 0000
00000040: 0000 0000 0000 0000 0000 0000 0000 0000
00000050: 0000 0000 0000 0000 0000 0000 0000 0000
00000060: 0000 0000 0000 0000 0000 0000 0000 0000
00000070: 0000 0000 0000 0000 0000 0000 0000 0000
00000080: 0000 0000 0000 0000 0000 0000 0000 0000
00000090: 0000 0000 0000 0000 0000 0000 0000 0000
000000a0: 0000 0000 0000 0000 0000 0000 0000 0000
000000b0: 0000 0000 0000 0000 0000 0000 0000 0000
000000c0: 0000 0000 0000 0000 0000 0000 0000 0000
000000d0: 0000 0000 0000 0000 0000 0000 0000 0000
000000e0: 0000 0000 0000 0000 0000 0000 0000 0000
000000f0: 0000 0000 0000 0000 0000 0000 0000 0000

net._transform._transforms.1.autoregressive_net.context_layer.weight f4 [64, 1]
-0.0693927 0.6864968 0.21447194 -0.20893604 -1.1360552 0.8311093 0.4756248 -0.25577277
-0.8655155 0.28518212 -0.0017567129 0.8069647 -0.761396 0.9047786 -0.5568877 -0.24067207
1.0188991 -0.0033032466 0.07913489 -0.8930269 0.30667245 -0.44073638 -0.46018717 0.6304069
0.71633196 0.81072325 -1.0228585 0.1093492 0.11200724 -0.5498341 0.85445637 0.7175874
-0.21539254 0.9180789 0.22448796 0.7683803 -0.8472922 -0.59007907 0.28664836 -0.28115284
-0.49703878 -0.38270977 -0.29105955 -0.9649598 0.036819912 -0.05099703 0.13214421 0.4017908
0.18280855 0.14614962 -0.15614611 -0.8826913 0.49181992 0.36259833 -0.24837115 -0.74800277
0.14973319 -0.7769631 0.22715361 -0.15565544 -0.5442177 0.47540593 -0.7094028 -0.12873174
00000000: c31d 8ebd 41be 2f3f 889e 5b3e 54f3 55be
00000010: 426a 91bf 94c3 543f 1885 f33e a6f4 82be
00000020: 6c92 5dbf 6403 923e 8141 e6ba 3d95 4e3f
00000030: d9ea 42bf 929f 673f 3190 0ebf bd72 76be
00000040: 496b 823f 487b 58bb 7911 a23d 699d 64bf
00000050: 2c04 9d3e 33a8 e1be a79d ebbe 5962 213f
00000060: 8861 373f 8f8b 4f3f 07ed 82bf 79f2 df3d
00000070: 0d64 e53d edc1 0cbf a7bd 5a3f cfb3 373f
00000080: dd8f 5cbe 3807 6b3f 2ce0 653e 92b4 443f
00000090: 24e8 58bf 6c0f 17bf 93c3 923e 44f3 8fbe
000000a0: de7b febe 89f2 c3be c205 95be 9b07 77bf
000000b0: 7ad0 163d 43e2 50bd d050 073e 86b7 cd3e
000000c0: 2a32 3b3e 3fa8 153e c4e4 1fbe 0ff8 61bf
000000d0: d2cf fb3e 7da6 b93e 0255 7ebe 1c7d 3fbf
000000e0: a853 193e 0ee7 46bf f59a 683e 2464 1fbe
000000f0: da51 0bbf 6868 f33e 6c9b 35bf 41d2 03be

net._transform._transforms.1.autoregressive_net.context_layer.bias f4 [64]
-0.6569712 -0.49635485 -0.14219241 0.83526754 0.46136665 0.23243092 0.43451497 0.6231268
-0.039129227 0.4942316 0.56572545 -0.018511161 -0.9112884 -0.6119476 0.8370073 -1.0086718
-0.40581796 -0.9311538 -0.07213537 -0.8718345 -0.46697724 -0.55835676 -0.009467326 -0.2133278
-0.7731806 -0.71755755 -0.95957816 0.96449554 -0.1231074 -0.62764376 0.14540958 0.80532193
-0.35155866 -0.70794725 0.20753726 0.15567666 0.72546244 0.1520395 0.49166402 0.73445475
0.9251586 0.08147995 0.98270315 -0.7642864 -0.96378374 -0.79592866 0.6894773 0.72907925
-0.8406412 -0.76958454 0.1211892 0.5745731 -0.8255747 0.035881147 0.7359154 -0.51746273
0.30066416 0.2809878 0.6255094 -0.4314966 0.49340266 -0.4080566 0.4848373 0.5797924
00000000: 442f 28bf 3922 febe e39a 11be 18d4 553f
00000010: 4038 ec3e 5f02 6e3e bf78 de3e 3d85 1f3f
00000020: f845 20bd ed0b fd3e 62d3 103f b8a4 97bc
00000030: 324a 69bf 99a8 1cbf 1c46 563f 281c 81bf
00000040: 5fc7 cfbe 1860 6ebf b5bb 93bd 8c30 5fbf
00000050: a417 efbe 78f0 0ebf d81c 1bbc 9a72 5abe
00000060: 2aef 45bf dab1 37bf eaa6 75bf 2ee9 763f
00000070: bc1f fcbd 43ad 20bf 40e6 143e 9429 4e3f
00000080: 7fff b3be 083c 35bf a684 543e b469 1f3e
00000090: e8b7 393f 3eb0 1b3e 63bb fb3e 3a05 3c3f
000000a0: 32d7 6c3f f6de a63d 6f92 7b3f 46a8 43bf
000000b0: 88ba 76bf fbc1 4bbf 9681 303f f0a4 3a3f
000000c0: 4334 57bf 7e03 45bf 0b32 f83d 3917 133f
000000d0: dd58 53bf 1cf8 123d f464 3c3f 7078 04bf
000000e0: a7f0 993e a2dd 8f3e 6221 203f 1fed dcbe
000000f0: 469f fc3e cbec d0be 983c f83e 466d 143f

net._transform._transforms.1.autoregressive_net.blocks.0.linear.weight f4 [64, 64]
-0.08166577 0.09437324 0.00032826015 0.028600657 -0.03638561 -0.12302251 0.12894535 0.01556948
-0.15672378 -0.13875401 0.14295486 0.055975646 0.019564742 -0.10384647 0.03589479 0.10983568
-0.038952123 -0.053879194 0.052835204 -0.08721857 0.008032736 -0.090454035 -0.0053363587 -0.12596586
0.096617036 0.06707172 -0.107912414 -0.11901423 0.038878966 0.14035484 0.16908032 0.031453274
0.10363245 -0.05351908 -0.061137166 0.0013007644 -0.025799027 0.119560994 -0.024315236 -0.05759743
0.1396082 0.11190961 0.015212623 -0.097582765 0.09632506 0.10166099 -0.0958625 0.06623851
0.029973045 0.08206045 -0.062613234 -0.016010966 0.108369075 -0.109254494 0.033786144 0.11933485
-0.080612905 -0.0024466235 -0.026613135 0.07141765 -0.025194075 -0.0684406 -0.044409946 0.10186693
-0.0046671503 -0.07921917 -0.08983146 0.06118591 -0.08049174 0.031954527 -0.08163399 0.118788324
0.050889388 0.019558575 -0.067769244 -0.052322462 0.12659702 0.030816378 -0.079881474 0.08596182
0.08009362 -0.0712869 -0.10676114 -0.028040484 0.05767918 0.12763262 0.16184539 0.04452605
0.058729175 0.018376334 0.05900776 0.020100242 -0.1218124 -0.017131377 -0.1337655 0.040275227
0.023080193 -0.05509917 -0.01050597 0.005957273 0.07028353 0.06591735 -0.08290678 0.07477975
0.11142155 0.02896282 0.05071789 0.07303694 0.119297005 -0.038264953 -0.0053414484 -0.12111583
0.093570195 -0.0136307655 -0.10554449 0.10522804 0.021129766 -0.09727164 0.0032975306 -0.037363928
0.081111446 0.060795255 0.06534628 0.059374843 0.0899901 -0.008610352 0.13061047 0.013580683
0.109205335 -0.06415187 0.08500052 -0.06459273 -0.07888984 -0.099866465 0.047158856 0.11054773
0.01915286 -0.005188898 -0.009316954 -0.0013962283 0.023010645 0.0038851125 -0.03817673 0.09990846
0.034968257 -0.053580187 -0.049968265 -0.0015900848 -0.054417558 0.06985096 0.06395065 0.037313048
0.059356887 0.114129014 -0.09195847 0.07527695 0.0023742185 -0.013912573 -0.001907015 0.018927893
-0.028133757 0.051590387 0.05617368 0.06122349 -0.070472695 0.08160403 -0.09986821 -0.077204406
-0.06501023 -0.031978853 0.07433919 0.071003124 -0.044338886 -0.015814668 0.11152133 -0.07001848
-0.082372 0.07496017 0.087943956 -0.04610372 0.085103385 0.008272717 -0.10463124 -0.023992622
0.12083818 0.036546893 0.043414667 -0.09370455 0.09883657 -0.015062937 0.03701502 -0.010516781
0.052772656 0.015717192 0.041713044 0.0533375 -0.026092334 0.10643425 -0.092482015 -0.090377696
-0.032147646 -0.05341865 0.12461867 0.13479166 -0.099519186 -0.09446015 0.052738644 0.13784344
0.07182572 -0.011752817 0.06856559 -0.035217494 -0.0027473494 -0.02450547 -0.04126875 -0.0615907
0.00314496 0.0062290193 -0.10122621 0.10228092 -0.009673415 -0.021460708 -0.051687114 -0.04095441
0.02595741 -0.113900006 0.08818725 0.15788844 0.05726055 0.046236627 0.07484899 -0.12887286
-0.08025083 -0.029044077 -0.09505918 0.028651996 0.04459981 -0.047980305 -0.13325033 0.08047966
-0.028933208 0.107181445 0.064185664 -0.119884185 -0.09354346 0.072119445 -0.074959114 -0.1271766
-0.108796425 0.02579687 0.045591336 -0.00861166 0.11003841 -0.08208494 0.035732154 -0.11549272
00000000: 6240 a7bd c246 c13d 551a ac39 ed4b ea3c
00000010: 1409 15bd 3af3 fbbd 400a 043e 2217 7f3c
00000020: 337c 20be 8815 0ebe c262 123e b846 653d
00000030: 3d46 a03c 75ad d4bd 6a06 133d 87f1 e03d
00000040: 438c 1fbd 6eb0 5cbd ba69 583d a69f b2bd
00000050: bd9b 033c f73f b9bd 9fdc aebb 32fd 00be
00000060: 27df c53d e65c 893d 2f01 ddbd bcbd f3bd
00000070: 8d3f 1f3d 2eb9 0f3e 6423 2d3e 26d5 003d
00000080: 403d d43d d336 5bbd f76a 7abd 697e aa3a
00000090: 7b58 d3bc 65dc f43d bf30 c7bc 48eb 6bbd
000000a0: 74f5 0e3e de30 e53d 5e3e 793c 79d9 c7bd
000000b0: 1346 c53d a333 d03d 8f53 c4bd 0ea8 873d
000000c0: 088a f53c 4f0f a83d 5e3b 80bd 6e29 83bc
000000d0: 9bf0 dd3d d2c0 dfbd 5763 0a3d d465 f43d
000000e0: 6118 a5bd 8857 20bb ca03 dabc 6b43 923d
000000f0: ce63 cebc 962a 8cbd 34e7 35bd 9c9f d03d
00000100: e5ee 98bb a93d a2bd 8ef9 b7bd 149e 7a3d
00000110: dad8 a4bd c0e2 023d b92f a7bd 4b47 f33d
00000120: 6471 503d 4e39 a03c 9aca 8abd 1450 56bd
00000130: a6a2 013e a172 fc3c e698 a3bd c00c b03d
00000140: 2008 a43d defe 91bd 96a5 dabd 28b5 e5bc
00000150: 0141 6c3d 20b2 023e ccba 253e f360 363d
00000160: 018e 703d f789 963c 1fb2 713d 43a9 a43c
00000170: c878 f9bd 1a57 8cbc d3f9 08be a3f7 243d
00000180: ac12 bd3c abaf 61bd 3b21 2cbc 3a35 c33b
00000190: d0f0 8f3d adff 863d 08cb a9bd 2026 993d
000001a0: fb30 e43d 7043 ed3c 90bd 4f3d 6494 953d
000001b0: fd51 f43d b6bb 1cbd 5107 afbb 940b f8bd
000001c0: bba1 bf3d 9353 5fbc b627 d8bd cc81 d73d
000001d0: 5518 ad3c 5b36 c7bd 621b 583b eb0a 19bd
000001e0: c21d a63d 7204 793d 45d4 853d 0933 733d
000001f0: bb4c b83d 6f12 0dbc c0be 053e 8381 5e3c
00000200: 0ca7 df3d 0e62 83bd c114 ae3d 3149 84bd
00000210: ff90 a1bd ca86 ccbd a529 413d d966 e23d
00000220: 75e6 9c3c a207 aabb 23a6 18bc a601 b7ba
00000230: d280 bc3c 5f9d 7e3b 345f 1cbd cf9c cc3d
00000240: e03a 0f3d e676 5bbd 86ab 4cbd 646a d0ba
00000250: f2e4 5ebd 050e 8f3d 8ff8 823d 91d5 183d
00000260: 3520 733d 79bc e93d b954 bcbd cd2a 9a3d
00000270: c798 1b3b 90f1 63bc cef4 f9ba ab0e 9b3c
00000280: c478 e6bc 7150 533d 5f16 663d 7bc5 7a3d
00000290: fd53 90bd 0420 a73d b487 ccbd 581d 9ebd
000002a0: 1524 85bd 42fc 02bd 253f 983d 166a 913d
000002b0: b19c 35bd c38d 81bc 4c65 e43d d965 8fbd
000002c0: a7b2 a8bd b884 993d f61b b43d 41d7 3cbd
000002d0: af4a ae3d 4a8a 073c e748 d6bd 2d8c c4bc
000002e0: 027a f73d 32b2 153d 94d3 313d 2ce8 bfbd
000002f0: d46a ca3d 89ca 76bc 109d 173d 944e 2cbc
00000300: 2428 583d 57c1 803c 4cdb 2a3d 6c78 5a3d
00000310: 97bf d5bc 33fa d93d 3667 bdbd f117 b9bd
00000320: 40ad 03bd 84cd 5abd 1338 ff3d d306 0a3e
00000330: b7d0 cbbd 5374 c1bd 7a04 583d d526 0d3e
00000340: 5d19 933d e38e 40bc 1e6c 8c3d 3840 10bd
00000350: e00c 34bb b2bf c8bc 6c09 29bd 8846 7cbd
00000360: ac1b 4e3b cd1c cc3b b04f cfbd a978 d13d
00000370: 3e7d 1ebc 5ece afbc deb5 53bd d0bf 27bd
00000380: a2a4 d43c 6844 e9bd 849b b43d 82ad 213e
00000390: 0a8a 6a3d 9e62 3d3d 6d4a 993d 3ff7 03be
000003a0: 8c5a a4bd d8ed edbc 63ae c2bd 97b7 ea3c
000003b0: 4aae 363d ff86 44bd c672 08be 85d2 a43d
000003c0: 5605 edbc f281 db3d c673 833d d785 f5bd
000003d0: b793 bfbd 5cb3 933d 2a84 99bd 953a 02be
000003e0: a9d0 debd f553 d33c fbbd 3a3d ec17 0dbc
000003f0: d15b e13d 261c a8bd e15b 123d 7287 ecbd

net._transform._transforms.1.autoregressive_net.blocks.0.linear.bias f4 [64]
-0.035522945 0.075055905 0.0476821 -0.08011355 0.10496018 -0.053337004 0.08584165 0.109734766
0.087215275 -0.06134025 0.015426047 0.069277264 0.06620531 0.13367547 0.05975739 0.0985363
-0.0783201 0.042242967 0.090544015 -0.08499613 0.08334887 0.11821651 -0.035999358 -0.11790271
-0.121917896 0.12499303 0.10234283 -0.09478591 0.059912603 -0.041440506 0.029394832 0.06601161
0.101979345 0.046664603 0.03568691 -0.04551944 -0.044545308 -0.05974282 0.023028797 0.06748455
-0.0063855764 -0.10049924 -0.058900874 0.07969163 0.09160523 0.061960667 -0.05062103 -0.08408801
0.055591226 0.007872 0.109079726 -0.084802255 0.118779615 0.1296082 0.112717435 -0.055392656
-0.06907574 -0.030168444 0.0040240837 0.01594298 0.029585382 0.013628457 0.07330089 0.112531394
00000000: 8280 11bd e9b6 993d 4e4e 433d 9312 a4bd
00000010: 5df5 d63d e777 5abd bfcd af3d 9fbc e03d
00000020: ec9d b23d ea3f 7bbd 88bd 7c3c 3de1 8d3d
00000030: a696 873d 39e2 083e 2ac4 743d 66cd c93d
00000040: 4a66 a0bd f606 2d3d 246f b93d 7312 aebd
00000050: d0b2 aa3d 7f1b f23d 1074 13bd fa76 f1bd
00000060: 17b0 f9bd 59fc ff3d 1e99 d13d 1d1f c2bd
00000070: eb66 753d 85bd 29bd 6ecd f03c 1831 873d
00000080: 8cda d03d 6223 3f3d 702c 123d 9872 3abd
00000090: 2475 36bd e3b4 74bd e3a6 bc3c 5735 8a3d
000000a0: 193e d1bb 8cd2 cdbd 0b42 71bd 5e35 a33d
000000b0: 869b bb3d 78ca 7d3d ff57 4fbd 5636 acbd
000000c0: a0b3 633d 90f9 003c 3165 df3d ceac adbd
000000d0: ba42 f33d 03b8 043e 66d8 e63d 69e3 62bd
000000e0: 9577 8dbd d023 f7bc 76dc 833b da9a 823c
000000f0: 0b5d f23c e449 5f3c c71e 963d dc76 e63d

net._transform._transforms.1.autoregressive_net.blocks.0.linear.mask f4 [64, 64]
1.0 1.0 1.0 1.0 1.0 1.0 1.0 1.0
1.0 1.0 1.0 1.0 1.0 1.0 1.0 1.0
1.0 1.0 1.0 1.0 1.0 1.0 1.0 1.0
1.0 1.0 1.0 1.0 1.0 1.0 1.0 1.0
1.0 1.0 1.0 1.0 1.0 1.0 1.0 1.0
1.0 1.0 1.0 1.0 1.0 1.0 1.0 1.0
1.0 1.0 1.0 1.0 1.0 1.0 1.0 1.0
1.0 1.0 1.0 1.0 1.0 1.0 1.0 1.0
1.0 1.0 1.0 1.0 1.0 1.0 1.0 1.0
1.0 1.0 1.0 1.0 1.0 1.0 1.0 1.0
1.0 1.0 1.0 1.0 1.0 1.0 1.0 1.0
1.0 1.0 1.0 1.0 1.0 1.0 1.0 1.0
1.0 1.0 1.0 1.0 1.0 1.0 1.0 1.0
1.0 1.0 1.0 1.0 1.0 1.0 1.0 1.0
1.0 1.0 1.0 1.0 1.0 1.0 1.0 1.0
1.0 1.0 1.0 1.0 1.0 1.0 1.0 1.0
1.0 1.0 1.0 1.0 1.0 1.0 1.0 1.0
1.0 1.0 1.0 1.0 1.0 1.0 1.0 1.0
1.0 1.0 1.0 1.0 1.0 1.0 1.0 1.0
1.0 1.0 1.0 1.0 1.0 1.0 1.0 1.0
1.0 1.0 1.0 1.0 1.0 1.0 1.0 1.0
1.0 1.0 1.0 1.0 1.0 1.0 1.0 1.0
1.0 1.0 1.0 1.0 1.0 1.0 1.0 1.0
1.0 1.0 1.0 1.0 1.0 1.0 1.0 1.0
1.0 1.0 1.0 1.0 1.0 1.0 1.0 1.0
1.0 1.0 1.0 1.0 1.0 1.0 1.0 1.0
1.0 1.0 1.0 1.0 1.0 1.0 1.0 1.0
1.0 1.0 1.0 1.0 1.0 1.0 1.0 1.0
1.0 1.0 1.0 1.0 1.0 1.0 1.0 1.0
1.0 1.0 1.0 1.0 1.0 1.0 1.0 1.0
1.0 1.0 1.0 1.0 1.0 1.0 1.0 1.0
1.0 1.0 1.0 1.0 1.0 1.0 1.0 1.0
00000000: 0000 803f 0000 803f 0000 803f 0000 803f
00000010: 0000 803f 0000 803f 0000 803f 0000 803f
00000020: 0000 803f 0000 803f 0000 803f 0000 803f
00000030: 0000 803f 0000 803f 0000 803f 0000 803f
00000040: 0000 803f 0000 803f 0000 803f 0000 803f
00000050: 0000 803f 0000 803f 0000 803f 0000 803f
00000060: 0000 803f 0000 803f 0000 803f 0000 803f
00000070: 0000 803f 0000 803f 0000 803f 0000 803f
00000080: 0000 803f 0000 803f 0000 803f 0000 803f
00000090: 0000 803f 0000 803f 0000 803f 0000 803f
000000a0: 0000 803f 0000 803f 0000 803f 0000 803f
000000b0: 0000 803f 0000 803f 0000 803f 0000 803f
000000c0: 0000 803f 0000 803f 0000 803f 0000 803f
000000d0: 0000 803f 0000 803f 0000 803f 0000 803f
000000e0: 0000 803f 0000 803f 0000 803f 0000 803f
000000f0: 0000 803f 0000 803f 0000 803f 0000 803f
00000100: 0000 803f 0000 803f 0000 803f 0000 803f
00000110: 0000 803f 0000 803f 0000 803f 0000 803f
00000120: 0000 803f 0000 803f 0000 803f 0000 803f
00000130: 0000 803f 0000 803f 0000 803f 0000 803f
00000140: 0000 803f 0000 803f 0000 803f 0000 803f
00000150: 0000 803f 0000 803f 0000 803f 0000 803f
00000160: 0000 803f 0000 803f 0000 803f 0000 803f
00000170: 0000 803f 0000 803f 0000 803f 0000 803f
00000180: 0000 803f 0000 803f 0000 803f 0000 803f
00000190: 0000 803f 0000 803f 0000 803f 0000 803f
000001a0: 0000 803f 0000 803f 0000 803f 0000 803f
000001b0: 0000 803f 0000 803f 0000 803f 0000 803f
000001c0: 0000 803f 0000 803f 0000 803f 0000 803f
000001d0: 0000 803f 0000 803f 0000 803f 0000 803f
000001e0: 0000 803f 0000 803f 0000 803f 0000 803f
000001f0: 0000 803f 0000 803f 0000 803f 0000 803f
00000200: 0000 803f 0000 803f 0000 803f 0000 803f
00000210: 0000 803f 0000 803f 0000 803f 0000 803f
00000220: 0000 803f 0000 803f 0000 803f 0000 803f
00000230: 0000 803f 0000 803f 0000 803f 0000 803f
00000240: 0000 803f 0000 803f 0000 803f 0000 803f
00000250: 0000 803f 0000 803f 0000 803f 0000 803f
00000260: 0000 803f 0000 803f 0000 803f 0000 803f
00000270: 0000 803f 0000 803f 0000 803f 0000 803f
00000280: 0000 803f 0000 803f 0000 803f 0000 803f
00000290: 0000 803f 0000 803f 0000 803f 0000 803f
000002a0: 0000 803f 0000 803f 0000 803f 0000 803f
000002b0: 0000 803f 0000 803f 0000 803f 0000 803f
000002c0: 0000 803f 0000 803f 0000 803f 0000 803f
000002d0: 0000 803f 0000 803f 0000 803f 0000 803f
000002e0: 0000 803f 0000 803f 0000 803f 0000 803f
000002f0: 0000 803f 0000 803f 0000 803f 0000 803f
00000300: 0000 803f 0000 803f 0000 803f 0000 803f
00000310: 0000 803f 0000 803f 0000 803f 0000 803f
00000320: 0000 803f 0000 803f 0000 803f 0000 803f
00000330: 0000 803f 0000 803f 0000 803f 0000 803f
00000340: 0000 803f 0000 803f 0000 803f 0000 803f
00000350: 0000 803f 0000 803f 0000 803f 0000 803f
00000360: 0000 803f 0000 803f 0000 803f 0000 803f
00000370: 0000 803f 0000 803f 0000 803f 0000 803f
00000380: 0000 803f 0000 803f 0000 803f 0000 803f
00000390: 0000 803f 0000 803f 0000 803f 0000 803f
000003a0: 0000 803f 0000 803f 0000 803f 0000 803f
000003b0: 0000 803f 0000 803f 0000 803f 0000 803f
000003c0: 0000 803f 0000 803f 0000 803f 0000 803f
000003d0: 0000 803f 0000 803f 0000 803f 0000 803f
000003e0: 0000 803f 0000 803f 0000 803f 0000 803f
000003f0: 0000 803f 0000 803f 0000 803f 0000 803f

net._transform._transforms.1.autoregressive_net.blocks.1.linear.weight f4 [64, 64]
-0.012147055 -0.00013914274 -0.1023391 -0.018526524 0.04011943 0.028887285 -0.013262174 -0.051745296
0.06970283 0.022621283 0.06239279 -0.0734624 0.030570995 0.0115722185 -0.026674435 9.135682e-05
0.07899114 0.108018816 0.0022478567 0.056392763 -0.035561074 -0.011994197 0.14443658 0.018132208
-0.11054773 0.025270406 0.065050356 -0.122115985 -0.07193867 0.10780822 -0.11015266 0.08382644
-0.058199394 -0.0461376 -0.12579131 0.024104005 -0.056583695 0.0059708795 0.10773 -0.11140148
0.040628485 -0.09886774 0.12684707 0.052673396 0.022261998 -0.028568028 0.016106555 0.05940012
0.037887007 -0.015778106 0.08760894 0.10602264 -0.08052372 0.06603593 0.04841645 -0.033504866
-0.10878167 -0.089793436 0.04959276 0.119386345 0.048623398 -0.08674488 0.08443861 -0.079731844
0.09813807 -0.0075789476 -0.11118901 0.029888364 0.1190214 0.033706278 -0.12618911 -0.10362728
-0.030984387 -0.07721402 -0.047499213 0.050534073 0.082583904 -0.12742671 -0.13946469 -0.07042521
-0.052662473 -0.101047754 -0.1320887 0.046640456 -0.085506156 -0.091762446 0.055739548 0.023491865
0.0032474988 -0.088235766 -0.08849063 0.07232499 -0.0818807 0.10804722 -0.12148922 0.03559916
-0.08794048 0.03777428 0.008280383 -0.04448534 -0.010177857 0.0001633425 0.11811756 0.049891613
0.091038465 0.104973316 0.112116635 -0.08058434 -0.10837522 -0.1310538 0.048526492 0.037765503
0.011909975 -0.07022589 0.0779532 0.03546842 0.0045238407 -0.047819134 0.038297746 0.060180206
0.1048774 -0.080876306 0.0010528634 0.03737814 0.07778789 0.072240174 0.053185217 0.013876862
-0.04757486 -0.07431438 0.0027112884 -0.08197093 3.068076e-05 0.023936508 -0.06826927 -0.061474603
0.11443598 0.0816131 -0.012876607 -0.086122416 -0.11017128 -0.02901919 0.12690376 0.0960081
-0.08822656 -0.11838891 0.06269306 -0.061297648 -0.028248988 -0.017828396 -0.059446182 0.1043143
0.035432354 -0.08860321 -0.024174163 0.043239903 0.06625667 -0.10869848 0.083296895 0.115834974
0.06728596 0.078077726 -0.07997326 -0.07004062 0.10975236 0.11700987 0.07116051 -0.121239625
0.02026224 0.1176547 -0.09982436 0.046270795 0.040367603 -0.15598953 0.10564234 -0.008910346
-0.060722828 -0.022876834 0.054820176 -0.118880846 -0.035441354 -0.08842513 -0.12506996 -0.011983816
0.0134179015 0.102914825 -0.054776497 0.1209213 -0.098802365 -0.012381944 -0.077298515 -0.07159486
-0.054499034 0.023670606 0.0369789 0.0703524 -0.12727998 0.10577232 0.00917036 -0.0110727735
-0.07134546 0.042040255 -0.011841912 -0.034214385 -0.022728585 -0.03732836 0.12581477 0.10213795
0.055844236 -0.027086997 -0.02468272 0.0700395 -0.058124054 0.053657603 0.103442244 0.1339188
0.039527193 0.11540029 -0.067684785 0.05932901 -0.073059864 0.01946128 0.11227319 -0.016993264
0.04923386 -0.060269043 0.06274082 0.07572258 -0.0052096834 0.009919603 -0.06807097 0.09654691
0.10816384 -0.060132116 -0.056644484 0.011733679 -0.04581059 -0.023003194 0.016972115 0.017805284
-0.026800219 0.0460958 -0.017687041 -0.09176181 -0.10973982 0.1240593 -0.019148456 0.029685639
-0.08850725 -0.07344269 0.035513908 -0.11078504 -0.028169567 -0.119488336 -0.06958662 -0.095232
00000000: 7104 47bc d8e6 11b9 2997 d1bd f0c4 97bc
00000010: 4554 243d 07a5 ec3c 9749 59bc e0f2 53bd
00000020: 5bc0 8e3d 4550 b93c 958f 7f3d 7473 96bd
00000030: 0670 fa3c 6799 3d3c 5884 dabc d296 bf38
00000040: 1bc6 a13d f838 dd3d c750 133b 19fc 663d
00000050: 7da8 11bd 4f83 44bc 2fe7 133e ff89 943c
00000060: d966 e2bd e203 cf3c 1f39 853d f217 fabd
00000070: 9554 93bd 8eca dc3d b897 e1bd 32ad ab3d
00000080: 7d62 6ebd c8fa 3cbd 70cf 00be c375 c53c
00000090: 4ec4 67bd 5ea7 c33b 8ca1 dc3d 7626 e4bd
000000a0: 0e6a 263d 2b7b cabd 33e4 013e 0fc0 573d
000000b0: cb5e b63c 7f07 eabc e5f1 833c 8a4d 733d
000000c0: 682f 1b3d 1641 81bc 516c b33d 6622 d93d
000000d0: 9fe9 a4bd d83d 873d 5450 463d 663c 09bd
000000e0: edc8 debd 9fe5 b7bd c721 4b3d d480 f43d
000000f0: 5429 473d 4da7 b1bd 26ee ac3d 734a a3bd
00000100: 9dfc c83d d258 f8bb 10b7 e3bd 71d8 f43c
00000110: 7ec1 f33d 980f 0a3d b837 01be 8a3a d4bd
00000120: f8d2 fdbc 6222 9ebd 898e 42bd d1fc 4e3d
00000130: c021 a93d 267c 02be d5cf 0ebe 183b 90bd
00000140: 9bb4 57bd 20f2 cebd 4342 07be 100a 3f3d
00000150: da1d afbd f3ed bbbd 274f 643d 0372 c03c
00000160: fdd3 543b f4b4 b4bd 933a b5bd 201f 943d
00000170: 12b1 a7bd dc47 dd3d 57cf f8bd 6dd0 113d
00000180: 231a b4bd 34b9 1a3d 72aa 073c 4336 36bd
00000190: 07c1 26bc eb46 2b39 9fe7 f13d 265b 4c3d
000001a0: 6072 ba3d 40fc d63d 689d e53d 6709 a5bd
000001b0: d4f3 ddbd f832 06be b7c3 463d 00b0 1a3d
000001c0: 0e22 433c 97d2 8fbd eda5 9f3d 5547 113d
000001d0: ba3c 943b ffdd 43bd 19de 1c3d 857f 763d
000001e0: f6c9 d63d 7aa2 a5bd 3c00 8a3a d219 193d
000001f0: 424f 9f3d a8f2 933d bed8 593d c75b 633c
00000200: dbdd 42bd 2332 98bd dfaf 313b 60e0 a7bd
00000210: 37af 0038 7f16 c43c c2d0 8bbd cbcc 7bbd
00000220: 695d ea3d c524 a73d 67f8 52bc f360 b0bd
00000230: 7ba1 e1bd a7b9 edbc 0ff3 013e e59f c43d
00000240: 20b0 b4bd e375 f2bd 3865 803d 3e13 7bbd
00000250: 6c6a e7bc db0c 92bc d77d 73bd bca2 d53d
00000260: 8421 113d 9a75 b5bd e508 c6bc 531c 313d
00000270: 94b1 873d 4f9d debd 9097 aa3d e33a ed3d
00000280: 39cd 893d 37e7 9f3d 05c9 a3bd 7571 8fbd
00000290: d8c5 e03d dfa2 ef3d 9abc 913d 7b4c f8bd
000002a0: fffc a53c f3f4 f03d b770 ccbd 7286 3d3d
000002b0: 8058 253d b8bb 1fbe 035b d83d b3fc 11bc
000002c0: 80b8 78bd 3368 bbbc 1f8b 603d cd77 f3bd
000002d0: f42a 11bd 3c18 b5bd 5712 00be c457 44bc
000002e0: c2d6 5b3c 02c5 d23d 525d 60bd 96a5 f73d
000002f0: e558 cabd a3dd 4abc af4e 9ebd 53a0 92bd
00000300: 613a 5fbd dce8 c13c 3077 173d eb14 903d
00000310: af55 02be 289f d83d 473f 163c 946a 35bc
00000320: 921d 92bd 6732 2c3d 9404 42bc 6224 0cbd
00000330: 4c31 babc 9fe5 18bd 96d5 003e b42d d13d
00000340: edbc 643d 8de5 ddbc 6a33 cabc df70 8f3d
00000350: 7d13 6ebd 13c8 5b3d 87d9 d33d 0322 093e
00000360: 44e7 213d fd56 ec3d 529e 8abd fa02 733d
00000370: 69a0 95bd 436d 9f3c 7cef e53d 7535 8bbc
00000380: 72a9 493d acdc 76bd 427e 803d 7114 9b3d
00000390: feb5 aabb d585 223c cb68 8bbd 63ba c53d
000003a0: 0185 dd3d 184d 76bd 0c04 68bd 9e3e 403c
000003b0: e3a3 3bbd 3271 bcbc 1b09 8b3c 63dc 913c
000003c0: 228c dbbc f3ce 3c3d 6ae4 90bc 9eed bbbd
000003d0: 45bf e0bd cd12 fe3d 39dd 9cbc 4c2f f33c
000003e0: 4a43 b5bd 1f69 96bd 0877 113d 44e3 e2bd
000003f0: ddc3 e6bc 4db6 f4bd 6e83 8ebd ff08 c3bd

net._transform._transforms.1.autoregressive_net.blocks.1.linear.bias f4 [64]
0.09946379 -0.026871556 -0.066352926 0.020965684 0.072865374 -0.013869414 -0.11810455 -0.03105897
0.085695095 -0.05456798 0.10227369 0.06515793 0.008415106 -0.054806653 0.026384087 -0.019848531
-0.12798586 0.0062389257 -0.003203738 -0.014265261 -0.054399572 -0.016750026 0.02006422 0.08019988
-0.14363994 0.0046465164 -0.11417101 0.091958515 -0.07912088 -0.020595543 -0.039079245 -0.047503613
0.04515174 -0.028245429 -0.012889053 0.092162594 -0.09637513 0.05193489 0.035536397 -0.07107407
0.043197434 0.09003774 -0.07536139 0.08136423 -0.048496652 -0.12011222 -0.09154756 -0.101770945
0.009659008 0.0723314 -0.017112512 0.10364817 0.06907416 -0.08346734 -0.06490937 0.0308178
0.09625473 -0.12366919 -0.012301746 -0.09605726 -0.14128703 -0.116067775 0.085668154 0.048318595
00000000: acb3 cb3d bd21 dcbc 0be4 87bd 3ac0 ab3c
00000010: 713a 953d 8a3c 63bc cce0 f1bd 626f febc
00000020: e980 af3d ad82 5fbd de74 d13d 8571 853d
00000030: 83df 093c f17c 60bd 7123 d83c 6399 a2bc
00000040: ba0e 03be e76f cc3b cef5 51bb d7b8 69bc
00000050: 16d2 5ebd 5a37 89bc b85d a43c d63f a43d
00000060: 5916 13be ce41 983b 7ed2 e9bd bf54 bc3d
00000070: 210a a2bd fcb7 a8bc 8f11 20bd 2693 42bd
00000080: 08f1 383d f562 e7bc 9b2c 53bc bebf bc3d
00000090: 5360 c5bd aeb9 543d 9d8e 113d 488f 91bd
000000a0: cbef 303d b565 b83d 1357 9abd 4aa2 a63d
000000b0: 6da4 46bd 65fd f5bd 4a7d bbbd 496d d0bd
000000c0: d140 1e3c 7c22 943d 8a2f 8cbc 7e45 d43d
000000d0: c176 8d3d edf0 aabd 34ef 84bd 9c75 fc3c
000000e0: 3321 c53d 4646 fdbd 438d 49bc abb9 c4bd
000000f0: 8cad 10be f1b4 edbd c972 af3d b8e9 453d

net._transform._transforms.1.autoregressive_net.blocks.1.linear.mask f4 [64, 64]
1.0 1.0 1.0 1.0 1.0 1.0 1.0 1.0
1.0 1.0 1.0 1.0 1.0 1.0 1.0 1.0
1.0 1.0 1.0 1.0 1.0 1.0 1.0 1.0
1.0 1.0 1.0 1.0 1.0 1.0 1.0 1.0
1.0 1.0 1.0 1.0 1.0 1.0 1.0 1.0
1.0 1.0 1.0 1.0 1.0 1.0 1.0 1.0
1.0 1.0 1.0 1.0 1.0 1.0 1.0 1.0
1.0 1.0 1.0 1.0 1.0 1.0 1.0 1.0
1.0 1.0 1.0 1.0 1.0 1.0 1.0 1.0
1.0 1.0 1.0 1.0 1.0 1.0 1.0 1.0
1.0 1.0 1.0 1.0 1.0 1.0 1.0 1.0
1.0 1.0 1.0 1.0 1.0 1.0 1.0 1.0
1.0 1.0 1.0 1.0 1.0 1.0 1.0 1.0
1.0 1.0 1.0 1.0 1.0 1.0 1.0 1.0
1.0 1.0 1.0 1.0 1.0 1.0 1.0 1.0
1.0 1.0 1.0 1.0 1.0 1.0 1.0 1.0
1.0 1.0 1.0 1.0 1.0 1.0 1.0 1.0
1.0 1.0 1.0 1.0 1.0 1.0 1.0 1.0
1.0 1.0 1.0 1.0 1.0 1.0 1.0 1.0
1.0 1.0 1.0 1.0 1.0 1.0 1.0 1.0
1.0 1.0 1.0 1.0 1.0 1.0 1.0 1.0
1.0 1.0 1.0 1.0 1.0 1.0 1.0 1.0
1.0 1.0 1.0 1.0 1.0 1.0 1.0 1.0
1.0 1.0 1.0 1.0 1.0 1.0 1.0 1.0
1.0 1.0 1.0 1.0 1.0 1.0 1.0 1.0
1.0 1.0 1.0 1.0 1.0 1.0 1.0 1.0
1.0 1.0 1.0 1.0 1.0 1.0 1.0 1.0
1.0 1.0 1.0 1.0 1.0 1.0 1.0 1.0
1.0 1.0 1.0 1.0 1.0 1.0 1.0 1.0
1.0 1.0 1.0 1.0 1.0 1.0 1.0 1.0
1.0 1.0 1.0 1.0 1.0 1.0 1.0 1.0
1.0 1.0 1.0 1.0 1.0 1.0 1.0 1.0
00000000: 0000 803f 0000 803f 0000 803f 0000 803f
00000010: 0000 803f 0000 803f 0000 803f 0000 803f
00000020: 0000 803f 0000 803f 0000 803f 0000 803f
00000030: 0000 803f 0000 803f 0000 803f 0000 803f
00000040: 0000 803f 0000 803f 0000 803f 0000 803f
00000050: 0000 803f 0000 803f 0000 803f 0000 803f
00000060: 0000 803f 0000 803f 0000 803f 0000 803f
00000070: 0000 803f 0000 803f 0000 803f 0000 803f
00000080: 0000 803f 0000 803f 0000 803f 0000 803f
00000090: 0000 803f 0000 803f 0000 803f 0000 803f
000000a0: 0000 803f 0000 803f 0000 803f 0000 803f
000000b0: 0000 803f 0000 803f 0000 803f 0000 803f
000000c0: 0000 803f 0000 803f 0000 803f 0000 803f
000000d0: 0000 803f 0000 803f 0000 803f 0000 803f
000000e0: 0000 803f 0000 803f 0000 803f 0000 803f
000000f0: 0000 803f 0000 803f 0000 803f 0000 803f
00000100: 0000 803f 0000 803f 0000 803f 0000 803f
00000110: 0000 803f 0000 803f 0000 803f 0000 803f
00000120: 0000 803f 0000 803f 0000 803f 0000 803f
00000130: 0000 803f 0000 803f 0000 803f 0000 803f
00000140: 0000 803f 0000 803f 0000 803f 0000 803f
00000150: 0000 803f 0000 803f 0000 803f 0000 803f
00000160: 0000 803f 0000 803f 0000 803f 0000 803f
00000170: 0000 803f 0000 803f 0000 803f 0000 803f
00000180: 0000 803f 0000 803f 0000 803f 0000 803f
00000190: 0000 803f 0000 803f 0000 803f 0000 803f
000001a0: 0000 803f 0000 803f 0000 803f 0000 803f
000001b0: 0000 803f 0000 803f 0000 803f 0000 803f
000001c0: 0000 803f 0000 803f 0000 803f 0000 803f
000001d0: 0000 803f 0000 803f 0000 803f 0000 803f
000001e0: 0000 803f 0000 803f 0000 803f 0000 803f
000001f0: 0000 803f 0000 803f 0000 803f 0000 803f
00000200: 0000 803f 0000 803f 0000 803f 0000 803f
00000210: 0000 803f 0000 803f 0000 803f 0000 803f
00000220: 0000 803f 0000 803f 0000 803f 0000 803f
00000230: 0000 803f 0000 803f 0000 803f 0000 803f
00000240: 0000 803f 0000 803f 0000 803f 0000 803f
00000250: 0000 803f 0000 803f 0000 803f 0000 803f
00000260: 0000 803f 0000 803f 0000 803f 0000 803f
00000270: 0000 803f 0000 803f 0000 803f 0000 803f
00000280: 0000 803f 0000 803f 0000 803f 0000 803f
00000290: 0000 803f 0000 803f 0000 803f 0000 803f
000002a0: 0000 803f 0000 803f 0000 803f 0000 803f
000002b0: 0000 803f 0000 803f 0000 803f 0000 803f
000002c0: 0000 803f 0000 803f 0000 803f 0000 803f
000002d0: 0000 803f 0000 803f 0000 803f 0000 803f
000002e0: 0000 803f 0000 803f 0000 803f 0000 803f
000002f0: 0000 803f 0000 803f 0000 803f 0000 803f
00000300: 0000 803f 0000 803f 0000 803f 0000 803f
00000310: 0000 803f 0000 803f 0000 803f 0000 803f
00000320: 0000 803f 0000 803f 0000 803f 0000 803f
00000330: 0000 803f 0000 803f 0000 803f 0000 803f
00000340: 0000 803f 0000 803f 0000 803f 0000 803f
00000350: 0000 803f 0000 803f 0000 803f 0000 803f
00000360: 0000 803f 0000 803f 0000 803f 0000 803f
00000370: 0000 803f 0000 803f 0000 803f 0000 803f
00000380: 0000 803f 0000 803f 0000 803f 0000 803f
00000390: 0000 803f 0000 803f 0000 803f 0000 803f
000003a0: 0000 803f 0000 803f 0000 803f 0000 803f
000003b0: 0000 803f 0000 803f 0000 803f 0000 803f
000003c0: 0000 803f 0000 803f 0000 803f 0000 803f
000003d0: 0000 803f 0000 803f 0000 803f 0000 803f
000003e0: 0000 803f 0000 803f 0000 803f 0000 803f
000003f0: 0000 803f 0000 803f 0000 803f 0000 803f

net._transform._transforms.1.autoregressive_net.final_layer.weight f4 [2, 64]
0.1123916 -0.07968723 0.003593108 0.066125154 0.1042636 0.054235723 -0.06610515 0.08384108
0.038367633 -0.065667085 0.11003147 0.060928065 -0.018566046 -0.052680314 0.13478571 0.11089634
-0.05513957 -0.0879933 0.053998247 0.0227395 -0.033399466 -0.0115878815 0.050762095 0.00045775707
-0.121138625 0.08486169 -0.13901766 -0.019375576 0.019363845 -0.09510556 -0.06498634 -0.05012071
0.057384722 -0.122972175 0.0050677466 -0.027821975 0.030212736 0.118928336 -0.086715184 0.05410467
-0.015124536 0.056056045 0.12845106 -0.009410044 0.08408911 -0.026102623 0.093485095 -0.113749914
0.0025631944 -0.0122716455 0.014900378 0.14161924 -0.07244651 -0.06202661 0.09026681 -0.026880294
-0.0013870364 -0.049105335 0.0036314833 -0.10455761 -0.13637845 -0.014891558 -0.10364944 0.03967763
-0.0072928737 0.06936316 0.07168539 0.0003324424 0.01998056 -0.1417893 0.015965514 0.065422386
0.08371608 -0.12434274 0.09915781 -0.06356275 -0.1102673 -0.13040823 0.12159241 -0.09755609
-0.098714165 -0.11051124 -0.050119173 0.028710082 0.001422681 -0.048599433 -0.007296914 -0.00164444
-0.048213106 -0.088273674 0.028707381 0.055649985 0.09641827 0.046090156 0.09620841 0.07494895
-0.01791714 -0.122904554 -0.12399552 -0.054101504 0.00018180955 -0.01946873 -0.09851059 -0.07602305
-0.0389479 -0.02287755 0.041473094 0.116917394 0.07107559 -0.12346548 0.06391565 0.009966746
-0.037274312 -0.04423568 -0.013908532 0.108863235 0.047333118 -0.053446945 -0.06980862 -0.07884965
0.021431535 0.10178526 0.002248367 -0.11548201 -0.00712104 -0.1327917 -0.14505814 0.09524207
00000000: 912d e63d 0f33 a3bd 597a 6b3b a06c 873d
00000010: 2888 d53d 4726 5e3d 2362 87bd dfb4 ab3d
00000020: 6127 1d3d 777c 86bd 2e58 e13d b58f 793d
00000030: d217 98bc 50c7 57bd 4405 0a3e 9f1d e33d
00000040: 08da 61bd d535 b4bd 442d 5d3d 3048 ba3c
00000050: e1cd 08bd 19db 3dbc eaeb 4f3d 1dff ef39
00000060: 8717 f8bd f7cb ad3d a55a 0ebe 87b9 9ebc
00000070: eda0 9e3c b4c6 c2bd 8f17 85bd 604b 4dbd
00000080: 3e0c 6b3d d6d8 fbbd 570f a63b e9ea e3bc
00000090: b380 f73c b390 f33d bb97 b1bd dc9c 5d3d
000000a0: e7cc 77bc 069b 653d ad88 033e 962c 1abc
000000b0: e936 ac3d 2bd5 d5bc 1d75 bf3d b7f5 e8bd
000000c0: 44fb 273b 030f 49bc b720 743c a204 113e
000000d0: d65e 94bd 9d0f 7ebd cedd b83d 1034 dcbc
000000e0: 38cd b5ba ad22 49bd 2efe 6d3b 4d22 d6bd
000000f0: cba6 0bbe b9fb 73bc 2846 d4bd 0385 223d
00000100: 0ff9 eebb 460e 8e3d cacf 923d aa4b ae39
00000110: 45ae a33c 3731 11be 1cca 823c 2cfc 853d
00000120: 5673 ab3d 68a7 febd 4013 cb3d 302d 82bd
00000130: d2d3 e1bd bc89 05be 7105 f93d 7dcb c7bd
00000140: a72a cabd b853 e2bd c349 4dbd 6831 eb3c
00000150: 4179 ba3a 3310 47bd f31a efbb 408a d7ba
00000160: 1b7b 45bd d4c8 b4bd be2b eb3c 3df1 633d
00000170: f176 c53d 08c9 3c3d ea08 c53d d67e 993d
00000180: f7c6 92bc 62b5 fbbd 5df1 fdbd 8a99 5dbd
00000190: 21a4 3e39 e37c 9fbc ecbf c9bd f9b1 9bbd
000001a0: d587 1fbd b369 bbbc b1df 293d 6372 ef3d
000001b0: 1490 913d 78db fcbd 35e6 823d 904b 233c
000001c0: f3ac 18bd 7930 35bd 9de0 63bc b0f3 de3d
000001d0: 5fe0 413d 2feb 5abd d2f7 8ebd ed7b a1bd
000001e0: 3091 af3c ca74 d03d 5759 133b d581 ecbd
000001f0: 9d57 e9bb 8cfa 07be 1f8a 14be 460e c33d

net._transform._transforms.1.autoregressive_net.final_layer.bias f4 [2]
0.05444494 0.09969141
00000000: a801 5f3d 032b cc3d

net._transform._transforms.1.autoregressive_net.final_layer.mask f4 [2, 64]
1.0 1.0 1.0 1.0 1.0 1.0 1.0 1.0
1.0 1.0 1.0 1.0 1.0 1.0 1.0 1.0
1.0 1.0 1.0 1.0 1.0 1.0 1.0 1.0
1.0 1.0 1.0 1.0 1.0 1.0 1.0 1.0
1.0 1.0 1.0 1.0 1.0 1.0 1.0 1.0
1.0 1.0 1.0 1.0 1.0 1.0 1.0 1.0
1.0 1.0 1.0 1.0 1.0 1.0 1.0 1.0
1.0 1.0 1.0 1.0 1.0 1.0 1.0 1.0
1.0 1.0 1.0 1.0 1.0 1.0 1.0 1.0
1.0 1.0 1.0 1.0 1.0 1.0 1.0 1.0
1.0 1.0 1.0 1.0 1.0 1.0 1.0 1.0
1.0 1.0 1.0 1.0 1.0 1.0 1.0 1.0
1.0 1.0 1.0 1.0 1.0 1.0 1.0 1.0
1.0 1.0 1.0 1.0 1.0 1.0 1.0 1.0
1.0 1.0 1.0 1.0 1.0 1.0 1.0 1.0
1.0 1.0 1.0 1.0 1.0 1.0 1.0 1.0
00000000: 0000 803f 0000 803f 0000 803f 0000 803f
00000010: 0000 803f 0000 803f 0000 803f 0000 803f
00000020: 0000 803f 0000 803f 0000 803f 0000 803f
00000030: 0000 803f 0000 803f 0000 803f 0000 803f
00000040: 0000 803f 0000 803f 0000 803f 0000 803f
00000050: 0000 803f 0000 803f 0000 803f 0000 803f
00000060: 0000 803f 0000 803f 0000 803f 0000 803f
00000070: 0000 803f 0000 803f 0000 803f 0000 803f
00000080: 0000 803f 0000 803f 0000 803f 0000 803f
00000090: 0000 803f 0000 803f 0000 803f 0000 803f
000000a0: 0000 803f 0000 803f 0000 803f 0000 803f
000000b0: 0000 803f 0000 803f 0000 803f 0000 803f
000000c0: 0000 803f 0000 803f 0000 803f 0000 803f
000000d0: 0000 803f 0000 803f 0000 803f 0000 803f
000000e0: 0000 803f 0000 803f 0000 803f 0000 803f
000000f0: 0000 803f 0000 803f 0000 803f 0000 803f
00000100: 0000 803f 0000 803f 0000 803f 0000 803f
00000110: 0000 803f 0000 803f 0000 803f 0000 803f
00000120: 0000 803f 0000 803f 0000 803f 0000 803f
00000130: 0000 803f 0000 803f 0000 803f 0000 803f
00000140: 0000 803f 0000 803f 0000 803f 0000 803f
00000150: 0000 803f 0000 803f 0000 803f 0000 803f
00000160: 0000 803f 0000 803f 0000 803f 0000 803f
00000170: 0000 803f 0000 803f 0000 803f 0000 803f
00000180: 0000 803f 0000 803f 0000 803f 0000 803f
00000190: 0000 803f 0000 803f 0000 803f 0000 803f
000001a0: 0000 803f 0000 803f 0000 803f 0000 803f
000001b0: 0000 803f 0000 803f 0000 803f 0000 803f
000001c0: 0000 803f 0000 803f 0000 803f 0000 803f
000001d0: 0000 803f 0000 803f 0000 803f 0000 803f
000001e0: 0000 803f 0000 803f 0000 803f 0000 803f
000001f0: 0000 803f 0000 803f 0000 803f 0000 803f

net._transform._transforms.3.autoregressive_net.initial_layer.weight f4 [64, 1]
0.19498074 -0.069839 -0.35714626 0.16506553 0.9608158 0.038817644 -0.2540561 0.24044013
0.16363168 -0.97432065 0.7970066 0.6184584 -0.5314503 -0.894434 0.8398621 -0.41820896
-0.4752084 0.3921448 0.40540063 -0.67333007 -0.96072114 -0.5528281 -0.66299355 -0.3948784
0.8250226 0.5438198 0.227579 0.32813513 -0.49853277 -0.77709985 0.9883882 -0.49886107
-0.79152966 0.55484295 0.2444309 -0.20186639 0.5110153 -0.1771673 0.9418551 -0.6129385
0.68128514 -0.21666646 -0.18462288 0.5856974 0.9499521 0.63075244 0.5473795 0.6629362
-0.80310476 -0.21750832 -0.26763308 0.0026552677 0.16677737 0.98269737 -0.7819017 -0.40828776
0.40563238 -0.015543938 0.113583446 0.2191956 -0.8685955 -0.43972778 0.5993699 0.272699
00000000: 08a9 473e c007 8fbd e0db b6be f006 293e
00000010: 06f8 753f 40ff 1e3d a413 82be f035 763e
00000020: 108f 273e 146d 79bf a008 4c3f 4a53 1e3f
00000030: 200d 08bf a0f9 64bf 3401 573f 7c1f d6be
00000040: 844e f3be 34c7 c83e ac90 cf3e 5c5f 2cbf
00000050: d2f1 75bf 2486 0dbf f2b9 29bf 802d cabe
00000060: ae34 533f c637 0b3f 780a 693e 5401 a83e
00000070: b03f ffbe 04f0 46bf 0207 7d3f b86a ffbe
00000080: b0a1 4abf 300a 0e3f 184c 7a3e 10b6 4ebe
00000090: e6d1 023f 586b 35be 6a1d 713f 8ae9 1cbf
000000a0: b468 2e3f d0dd 5dbe c80d 3dbe 44f0 153f
000000b0: 1030 733f fe78 213f 1021 0c3f 30b6 293f
000000c0: 4698 4dbf 80ba 5ebe 3407 89be 0004 2e3b
000000d0: b0c7 2a3e 0e92 7b3f b62a 48bf 180b d1be
000000e0: 0caf cf3e 00ac 7ebc 709e e83d d074 603e
000000f0: 465c 5ebf 0024 e1be 4e70 193f 349f 8b3e

net._transform._transforms.3.autoregressive_net.initial_layer.bias f4 [64]
0.44082025 -0.81557935 -0.2865309 0.23186533 -0.90263313 0.48098773 0.52506703 -0.9345412
-0.29415745 0.729508 0.50828904 -0.37787566 0.03712162 -0.8075971 -0.06232454 -0.06926197
-0.7192515 -0.9141819 -0.65055716 0.33282536 0.1576906 0.33715025 0.42643803 0.5906498
0.31518975 0.72019196 -0.08112019 0.61805135 -0.8503431 0.5750649 -0.567291 -0.060493354
-0.7763443 -0.571995 -0.018819747 -0.85249317 0.8891498 -0.3623187 -0.941563 0.20988497
-0.016226606 -0.5317559 -0.49772418 0.59533155 0.699239 0.4528818 0.31429172 0.3574679
0.4119762 0.13978712 -0.8960303 0.21044877 0.7577718 0.8466571 0.6066308 -0.8851994
0.57597244 -0.83324 0.048186783 -0.01824726 0.87220806 -0.42564443 -0.4266477 -0.08760389
00000000: 31b3 e13e cfc9 50bf 2eb4 92be 1b6e 6d3e
00000010: f712 67bf 0644 f63e cb6a 063f 183e 6fbf
00000020: ce9b 96be 09c1 3a3f 3b1f 023f eb78 c1be
00000030: d70c 183d afbe 4ebf 0448 7fbd 38d9 8dbd
00000040: de20 38bf d307 6abf ea8a 26bf 1668 aa3e
00000050: a579 213e f59e ac3e 1656 da3e d334 173f
00000060: 8d60 a13e 805e 383f 5822 a6bd 9d38 1e3f
00000070: 16b0 59bf 7437 133f fc39 11bf e1c7 77bd
00000080: 80be 46bf 446e 12bf df2b 9abc fe3c 5abf
00000090: 529f 633f d681 b9be 460a 71bf 16ec 563e
000000a0: a9ed 84bc 2821 08bf b4d5 febe a667 183f
000000b0: 5401 333f 20e0 e73e d8ea a03e 0806 b73e
000000c0: 8bee d23e 5b24 0f3e 3e62 65bf e27f 573e
000000d0: 55fd 413f 85be 583f 284c 1b3f 6e9c 62bf
000000e0: ee72 133f 374f 55bf 815f 453d 477b 95bc
000000f0: 0749 5f3f 11ee d9be 9171 dabe ab69 b3bd

net._transform._transforms.3.autoregressive_net.initial_layer.mask f4 [64, 1]
0.0 0.0 0.0 0.0 0.0 0.0 0.0 0.0
0.0 0.0 0.0 0.0 0.0 0.0 0.0 0.0
0.0 0.0 0.0 0.0 0.0 0.0 0.0 0.0
0.0 0.0 0.0 0.0 0.0 0.0 0.0 0.0
0.0 0.0 0.0 0.0 0.0 0.0 0.0 0.0
0.0 0.0 0.0 0.0 0.0 0.0 0.0 0.0
0.0 0.0 0.0 0.0 0.0 0.0 0.0 0.0
0.0 0.0 0.0 0.0 0.0 0.0 0.0 0.0
00000000: 0000 0000 0000 0000 0000 0000 0000 0000
00000010: 0000 0000 0000 0000 0000 0000 0000 0000
00000020: 0000 0000 0000 0000 0000 0000 0000 0000
00000030: 0000 0000 0000 0000 0000 0000 0000 0000
00000040: 0000 0000 0000 0000 0000 0000 0000 0000
00000050: 0000 0000 0000 0000 0000 0000 0000 0000
00000060: 0000 0000 0000 0000 0000 0000 0000 0000
00000070: 0000 0000 0000 0000 0000 0000 0000 0000
00000080: 0000 0000 0000 0000 0000 0000 0000 0000
00000090: 0000 0000 0000 0000 0000 0000 0000 0000
000000a0: 0000 0000 0000 0000 0000 0000 0000 0000
000000b0: 0000 0000 0000 0000 0000 0000 0000 0000
000000c0: 0000 0000 0000 0000 0000 0000 0000 0000
000000d0: 0000 0000 0000 0000 0000 0000 0000 0000
000000e0: 0000 0000 0000 0000 0000 0000 0000 0000
000000f0: 0000 0000 0000 0000 0000 0000 0000 0000

net._transform._transforms.3.autoregressive_net.context_layer.weight f4 [64, 1]
0.75522375 -1.0194725 0.20440003 0.60796326 -0.514043 -0.03058491 0.036082588 1.0270996
-0.08667516 0.75997573 -0.12796833 0.97955596 -0.9084294 0.09775349 -0.81581706 -0.67554843
-0.03530479 -0.89318234 0.014412359 -0.19326329 0.12653375 0.072668165 -0.5736125 -0.67836237
-0.1588129 -0.61780685 1.0571839 0.76010233 -0.5408234 -0.051682234 0.6126896 -1.0280095
0.91873276 -0.8840179 -0.17933024 0.22808592 0.3218128 -0.5131423 -0.7115373 0.021846531
0.44475624 0.21693026 -0.9979729 -0.38943148 -0.7309316 -0.08555686 -0.30452886 0.8527446
-0.3015656 0.6704132 -0.7266598 -0.6817442 -0.47753537 0.64445853 0.92045057 -0.38798612
0.6893834 -0.12079093 1.0061705 -0.117875874 0.6891934 -0.22530092 -0.79872805 0.46721348
00000000: 5856 413f 137e 82bf 3e4e 513e 7ba3 1b3f
00000010: 5298 03bf 358d fabc 56cb 133d 0078 833f
00000020: bf82 b1bd c58d 423f 210a 03be 2ec4 7a3f
00000030: d48e 68bf fb32 c83d 63d9 50bf bef0 2cbf
00000040: c19b 10bd 99a7 64bf d121 6c3c d0e6 45be
00000050: 1092 013e 0cd3 943d 45d8 12bf 28a9 2dbf
00000060: d99f 22be 9728 1ebf cd51 873f 1196 423f
00000070: 6773 0abf c0b0 53bd 3ad9 1c3f d195 83bf
00000080: 1232 6b3f ff4e 62bf 59a2 37be 5b8f 693e
00000090: a6c4 a43e 4b5d 03bf 4f27 36bf 7ff7 b23c
000000a0: 17b7 e33e f722 5e3e 277b 7fbf 9063 c7be
000000b0: 551e 3bbf 6f38 afbd 35eb 9bbe 784d 5a3f
000000c0: ce66 9abe 33a0 2b3f 6006 3abf ca86 2ebf
000000d0: 847f f4be 3cfb 243f a6a2 6b3f 1ea6 c6be
000000e0: 6e7b 303f 3c61 f7bd 32ca 803f e868 f1bd
000000f0: fb6e 303f 49b5 66be 7179 4cbf 9b36 ef3e

net._transform._transforms.3.autoregressive_net.context_layer.bias f4 [64]
-0.42913848 0.19067869 -0.7234102 -0.14523537 0.84172994 0.023300251 -0.5859513 0.88229686
-0.8950467 -0.7630986 -0.9365043 -0.6176896 0.606545 0.44044203 0.8836375 0.34316027
0.61744756 0.33342713 -0.43247277 -0.47525388 -0.61070776 0.36693949 0.17102204 0.65182716
-0.94808125 -0.8169571 -0.8697352 0.66605645 -0.8653127 -0.13702527 0.1241623 0.948491
-0.58558214 0.21986072 -0.5417134 0.7340173 0.28134304 -0.58669555 -0.01484723 0.6674322
0.1387651 0.95041734 0.94767785 -0.4155948 0.27530742 -0.7248681 -0.39281002 -0.40344757
-0.4915256 0.40935993 0.9854572 0.45644948 1.0344211 0.7116033 0.61906487 -0.6992113
-0.70928115 -0.30887946 0.061293982 0.8863806 -0.5033333 0.46954668 -0.72644615 0.7187743
00000000: 0ab8 dbbe 4641 433e 6931 39bf 95b8 14be
00000010: 9d7b 573f 2be0 be3c e800 16bf 35de 613f
00000020: c821 65bf 6e5a 43bf bfbe 6fbf e820 1ebf
00000030: 8846 1b3f 9e81 e13e 1136 623f b4b2 af3e
00000040: 0b11 1e3f f6b6 aa3e 126d ddbe 7a54 f3be
00000050: 5857 1cbf 7edf bb3e 6720 2f3e 25de 263f
00000060: 74b5 72bf 1a24 51bf f7a6 5ebf ad82 2a3f
00000070: 2285 5dbf 5a50 0cbe ce48 fe3d 4ed0 723f
00000080: b6e8 15bf 2b23 613e bbad 0abf 8fe8 3b3f
00000090: 320c 903e ae31 16bf cc41 73bc d6dc 2a3f
000000a0: 7018 0e3e 8d4e 733f 049b 723f d7c8 d4be
000000b0: 18f5 8c3e f590 39bf 651e c9be ae90 cebe
000000c0: 3ea9 fbbe a097 d13e ec46 7c3f bfb3 e93e
000000d0: e967 843f a22b 363f 097b 1e3f 83ff 32bf
000000e0: 7393 35bf 7325 9ebe 660f 7b3d d7e9 623f
000000f0: 73da 00bf 6c68 f03e 60f8 39bf 9801 383f

net._transform._transforms.3.autoregressive_net.blocks.0.linear.weight f4 [64, 64]
-0.0030350906 0.07019088 -0.09712324 -0.10980225 -0.02876259 0.04719732 0.033628047 0.016996989
-0.0030314256 0.0859642 -0.06640191 -0.086345635 -0.14431685 -0.1128597 -0.006205624 -0.10049215
0.03239727 0.064009026 0.018023467 -0.056209527 0.033414643 0.050812002 -0.057467192 0.019550158
-0.109971076 0.03946723 0.012709653 0.05338499 0.0426935 -0.0013788022 -0.080901034 0.051787633
0.10053585 0.007985841 -0.03388785 -0.07789744 0.082728095 0.001124733 -0.102410406 0.08785639
-0.10327538 0.09876874 -0.02407769 0.10554971 0.052644562 -0.021585612 0.0067008305 -0.045193344
0.14148001 0.07181095 -0.037698463 -0.08678604 -0.04525668 0.021944935 -0.04800907 -0.119836815
-0.0063038343 -0.0026194742 -0.15270732 0.06979749 -0.08891276 -0.103158146 0.016218081 0.089901455
-0.10203371 -0.001458404 0.11118046 0.030473957 0.12957972 -0.019764518 -0.036306396 0.0807196
0.003229492 0.0742445 -0.13136816 0.043437533 -0.041989535 0.05421193 0.14281195 0.019901954
-0.0067408974 -0.019072559 0.07066587 -0.040899362 -0.0881197 -0.10674931 0.09354125 -0.031454608
0.037091862 -0.029872643 -0.12014672 -0.062089138 -0.018219233 0.08062337 -0.023811245 0.14470471
-0.110026985 -0.025964089 -0.014304027 0.05355063 0.03433155 -0.08862979 -0.103282616 -0.07781236
-0.0052380404 0.08192444 0.045347515 0.02085105 -0.043853723 0.056865457 -0.018318668 0.085363135
0.07182196 0.061989456 0.020255629 0.12160594 -0.10583207 0.031028468 -0.025908757 0.10716756
0.041054882 0.03481475 0.13386679 -0.037791297 -0.044462726 0.045925125 0.10380071 0.020367034
-0.055420004 -0.09443525 -0.06426656 -0.069133975 -0.09908139 0.03185194 0.08471724 0.017269878
-0.09341181 0.035974514 -0.02333614 -0.060036354 -0.14517999 0.030143205 -0.009085264 0.012223162
-0.020750878 -0.050984398 -0.052078784 -0.066464044 0.0072451136 -0.09938351 0.069324836 -0.00042507373
0.007695262 -0.0659178 0.011165816 -0.068782896 -0.116769806 -0.046875637 -0.047357515 0.0015502829
-0.048495058 -0.082735874 -0.10120773 0.052702237 -0.10621863 0.04856935 0.10518074 -0.093653575
0.052502975 0.07551744 0.014509381 -0.06601965 -0.028224891 0.03751591 0.069483414 -0.007145209
-0.07731745 -0.0065110475 -0.074072145 -0.066626444 0.038973983 -0.06261118 0.093909666 0.12969282
-0.002597637 0.06297914 0.06846683 -0.11925537 0.04584911 -0.03464721 0.104619235 0.11219518
-0.038570005 -0.12985843 0.029344844 -0.07388769 0.12257974 -0.10321964 -0.04217782 -0.054824945
-0.06925934 0.009060243 0.02831903 -0.026345052 0.09430481 0.053218517 0.049472637 0.103647105
-0.0643052 0.115089364 0.075743824 0.026327312 -0.044116914 0.040930543 0.02302758 -0.07608221
0.0043232786 0.04023453 -0.060869787 0.0482643 -0.10725507 0.09110874 0.080120206 0.11645237
-0.03405577 -0.013489062 0.005679034 -0.1206838 0.024170222 0.026345134 -0.11580267 -0.013243863
0.010967629 -0.015886912 0.08048824 -0.029090593 -0.06350221 0.08216703 -0.06217668 0.017954646
0.065768845 -0.10145815 0.08381629 -0.046362557 -0.0012927962 -0.06860002 -0.07541944 0.010708126
-0.13369337 0.048730467 0.13715881 0.0030449622 0.1091112 0.05869193 0.121958256 0.0483996
00000000: 5fe8 46bb 3cc0 8f3d 8de8 c6bd 01e0 e0bd
00000010: 869f ebbc fa51 413d 90bd 093d 453d 8b3c
00000020: e2aa 46bb 000e b03d b9fd 87bd fbd5 b0bd
00000030: ccc7 13be fd22 e7bd 8c58 cbbb d4ce cdbd
00000040: 00b3 043d 2a17 833d f3a5 933c f63b 66bd
00000050: cbdd 083d 3f20 503d b862 6bbd a727 a03c
00000060: 8438 e1bd 64a8 213d 263c 503c 38aa 5a3d
00000070: 61df 2e3d edb8 b4ba 71af a5bd 451f 543d
00000080: bde5 cd3d 0bd7 023c fccd 0abd b188 9fbd
00000090: 596d a93d c76b 933a 8cbc d1bd 0dee b33d
000000a0: 0b82 d3bd 4447 ca3d 933e c5bc 722a d83d
000000b0: d3a1 573d 4fd4 b0bc a492 db3b a81c 39bd
000000c0: 23e0 103e 9f11 933d b469 1abd e1bc b1bd
000000d0: 125f 39bd ddc5 b33c 29a5 44bd 016d f5bd
000000e0: 6590 cebb 7cab 2bbb 4f5f 1cbe fdf1 8e3d
000000f0: e517 b6bd 9444 d3bd c8db 843c 411e b83d
00000100: 0df7 d0bd eb27 bfba 95b2 e33d 85a4 f93c
00000110: 8cb0 043e 33e9 a1bc 04b6 14bd 5150 a53d
00000120: e3a5 533b 800d 983d 6085 06be 8eeb 313d
00000130: 38fd 2bbd 540d 5e3d 4c3d 123e 6c09 a33c
00000140: bfe2 dcbb 0e3e 9cbc 45b9 903d 1786 27bd
00000150: 1a78 b4bd 629f dabd 8e92 bf3d 8cd6 00bd
00000160: a3ed 173d 79b7 f4bc 7c0f f6bd 2e51 7ebd
00000170: 8040 95bc de1d a53d cd0f c3bc 792d 143e
00000180: d455 e1bd a4b2 d4bc 705b 6abc e857 5b3d
00000190: 3d9f 0c3d 8983 b5bd d685 d3bd 165c 9fbd
000001a0: dea3 abbb 00c8 a73d 51be 393d d2cf aa3c
000001b0: f69f 33bd c1eb 683d 0811 96bc ded2 ae3d
000001c0: 6417 933d a8e8 7d3d 22ef a53c 890c f93d
000001d0: 7cbe d8bd 6a2f fe3c 9a3e d4bc aa7a db3d
000001e0: 2a29 283d e999 0e3d 6014 093e 0ccb 1abd
000001f0: 8c1e 36bd fc1b 3c3d 7795 d43d c4d8 a63c
00000200: 1600 63bd 4567 c1bd 309e 83bd 1d96 8dbd
00000210: 2feb cabd 2e77 023d 3b80 ad3d 8f79 8d3c
00000220: b14e bfbd 035a 133d 6f2b bfbc aee8 75bd
00000230: 10aa 14be e2ee f63c 5cda 14bc a843 483c
00000240: bffd a9bc 04d5 50bd 9050 55bd 4d1e 88bd
00000250: 6b68 ed3b 9589 cbbd 2efa 8d3d 6edc deb9
00000260: 8928 fc3b e9ff 86bd d4f0 363c 0cde 8cbd
00000270: 0225 efbd ab00 40bd f4f9 41bd dd32 cb3a
00000280: c1a2 46bd 6d71 a9bd 0046 cfbd 4dde 573d
00000290: 2789 d9bd a8f0 463d 0069 d73d 72cd bfbd
000002a0: 5c0d 573d e3a8 9a3d c1b8 6d3c 4f35 87bd
000002b0: e337 e7bc 48aa 193d 524d 8e3d 5b22 eabb
000002c0: 9c58 9ebd a05a d5bb 23b3 97bd 7273 88bd
000002d0: 2fa3 1f3d 4a3a 80bd b653 c03d 32ce 043e
000002e0: 1e3d 2abb 35fb 803d 5638 8c3d 293c f4bd
000002f0: 47cc 3b3d 3cea 0dbd 9c42 d63d 96c6 e53d
00000300: 95fb 1dbd 9cf9 04be 9964 f03c 6e52 97bd
00000310: 160b fb3d d264 d3bd a6c2 2cbd 1f90 60bd
00000320: d7d7 8dbd 6a71 143c 4ffd e73c 94d1 d7bc
00000330: e122 c13d a9fb 593d d2a3 4a3d ef44 d43d
00000340: 72b2 83bd f9b3 eb3d 941f 9b3d 60ac d73c
00000350: f0b3 34bd c9a6 273d 56a4 bc3c fdd0 9bbd
00000360: 4aaa 8d3b f6cc 243d 9952 79bd c9b0 453d
00000370: 8ca8 dbbd 3897 ba3d 1016 a43d 957e ee3d
00000380: 107e 0bbd 3a01 5dbc 3117 ba3b 1129 f7bd
00000390: a100 c63c c0d1 d73c f329 edbd cafc 58bc
000003a0: 92b1 333c 4525 82bc 05d7 a43d 654f eebc
000003b0: 720d 82bd 3047 a83d f9ac 7ebd 9f15 933c
000003c0: d1b1 863d 4ac9 cfbd e0a7 ab3d aae6 3dbd
000003d0: 0b73 a9ba 2b7e 8cbd 8275 9abd 2371 2f3c
000003e0: eae6 08be 9999 473d 5c73 0c3e fd8d 473b
000003f0: b175 df3d f366 703d 40c5 f93d a93e 463d
