gcn_model.pth (torch, 387121 bytes, 3 tensors)

conv1.conv.bias f4 [64]
00000000: f0a2 11be ed14 70bd c81e 02be 2cb8 0d3e
00000010: 2886 06bd 5fdd 473e 264b 78bc f8c9 cf3e
00000020: a448 15bd dd31 16be f752 1b3f 389d 253e
00000030: 40a5 bb3e f315 193e bedd bc3e 2906 5e3e
00000040: 39c9 503e 36b2 213f 43b7 7e3e 13fa 0d3f
00000050: 2da4 7a3e 5ab3 f23e a059 42bd 96dc eabd
00000060: f4c8 763e 6252 663e 2004 883e 7ce3 543e
00000070: 81ba c53e 09b0 3d3e 15a5 cb3e 1520 aabd
00000080: 6d0c 803c 9a7e f83e 4135 8a3e 8033 45bd
00000090: c8d6 22bc 9ad5 803e 9648 353e f27f d1bd
000000a0: c66c c3bd 1405 783e 2775 18be 158c 3c3e
000000b0: f11c 023e ca0a 09be e0cc e43e d8f5 223e
000000c0: 7152 853d e4d2 24bc 755f 183f a160 d1bd
000000d0: d3cd d9bc feeb ffbd 9744 563e 54f0 e33e
000000e0: 2bcf 8d3e eddd 08bd b183 f83e b1c4 1c3f
000000f0: acdd a33e ef09 92bd cfd5 cf3e 35cb 503e
-0.14222312 -0.058613706 -0.12707055 0.13839787 -0.032842785 0.1951804 -0.0151546355 0.40583777
-0.03644623 -0.14667459 0.6067347 0.16173255 0.36649513 0.14949779 0.36887926 0.21682037
0.2038926 0.63162553 0.24874596 0.5545971 0.2447669 0.4740246 -0.047448754 -0.11467855
0.24100095 0.22492364 0.26565647 0.20789903 0.38618854 0.18524183 0.39774385 -0.083069004
0.015630925 0.4853409 0.26993755 -0.048144817 -0.009938903 0.25162965 0.1770347 -0.10229482
-0.09542231 0.24220687 -0.1488844 0.18412812 0.12706353 -0.13383022 0.44687557 0.15914094
0.06509865 -0.010060046 0.59520656 -0.102235086 -0.026587402 -0.12496184 0.20924602 0.44519293
0.2769712 -0.03341477 0.48537973 0.6123763 0.3200506 -0.07130801 0.4059281 0.20390017

conv1.conv.lin.weight f4 [64, 1500]
00000000: 6859 d2bc c31f d23b fb9f b8bc 383b 0d3d
00000010: 0bad 9a3b dd48 863d cacd 26bd 89ce 97bc
00000020: f689 99ba 27c9 bd3c 6b5e 4cbd 4135 efbc
00000030: 33e2 9d3b a920 0dbd f162 11bd 1714 443c
00000040: 0f14 32bc c03a 76bd 038e d7bc 61f2 123d
00000050: 9c35 733d 6964 1dba 0104 41bd 5c4d 1abd
00000060: 094d 53bd 22ba b33c 29b9 143d af8e 183d
00000070: ff0c b0bc e0bb db3c 86c0 d1bb 8fab aaba
00000080: f388 c3bc 4de7 ffb9 4c15 92bc 87ef b43a
00000090: ef74 afbc 39a7 8b3c 0891 213d 8172 21bd
000000a0: c317 d6bc 8076 05bd aece 463d a302 5b3c
000000b0: 3978 4e3d 249d 69bd cf28 04bd df57 ebbc
000000c0: 5bda 013d e610 373d 5aaa 513d 55e0 003d
000000d0: 4b47 003d c2a8 0c3c e48b 9a3c 3cd3 48bd
000000e0: dcf2 c43c 13d7 cdbc 432f e73c abab 7b3d
000000f0: c592 c73c c6e1 1e3c 10e1 dcbc 6f23 443d
00000100: f471 fc3b 63b9 433d 3983 e8bc fc90 bcbc
00000110: 5994 4d3d c537 fbbc 0f38 3ebd c787 013d
00000120: f368 823c 9d37 3cbd 09b3 483d af4d 013c
00000130: d469 eb3c 05ee 333d 22b0 043d 89d7 1cbd
00000140: 321e b23a 3536 173c 101d 8abc d75e b7ba
00000150: b6d2 b3bb a880 773d 1189 433c 5149 edbb
00000160: 2a26 45bc 7374 253d b537 7f3d f7ec 71bd
00000170: 7c95 98bc 0e7a e43c b62d c93b f1de 41bd
00000180: 8675 433d ad78 a0ba 38e8 c53c 9642 23bd
00000190: a0fa 66bd 743a c23c f0d2 37bd 5bd3 813c
000001a0: 149c 87bd 3cc4 c6bc f88f 8c3c 1431 bf3c
000001b0: 9e2d abbc d299 5abc f131 2cbc 4534 e93a
000001c0: 8d2a 0c3d ea41 f6ba 6bcd 49bd 0e72 313d
000001d0: 2412 063d 7cf9 42bd 99aa 693d af62 30bd
000001e0: 3511 a73a 5d59 b3bc d7f0 9eba d304 00bc
000001f0: 5beb 713d 190f 04bd 8146 a53c a81c 11bc
00000200: 99f3 f9bc d7df 9bbb 7280 47bd b2d2 f2bc
00000210: 129a f2bc 4340 bebb f9c6 823d b4dc 6cbd
00000220: a063 1dbc 9562 97bc ac5b 64bd 5804 f83b
00000230: d3f0 0bbc 08e7 813d 0205 3f3d a2ef 0dbd
00000240: c5f7 8dbc d7f5 babc 3d11 043d 0c3f e83c
00000250: 3a5b 31bd 86a4 f9bc 0b58 3bbd 8cdb 413d
00000260: b2f7 93bc d56c 83bd 00bc 1c3d 5128 f23c
00000270: 3ad7 123d 1fac b23c 2af0 6dbd 3a2e ae3c
00000280: 5468 223d 7b40 1b3d 0809 c8bc c981 ed3c
00000290: c378 0b3c 238b dc3c 7ae2 60bd 8f7f 03bd
000002a0: 0f2c 0fbd fdb9 91bc dab5 323d b6fa 2cbd
000002b0: 3fee 973c 08ba cbbc 22dd 583d bd54 eb3c
000002c0: 930f 41bc 1e73 1c3d 8cb7 553c af13 0bbd
000002d0: 57c4 233d 1a29 cebc 2b23 4c3d 94b6 09bc
000002e0: 9261 b9bc 1468 543d 5a23 003d 9c80 56bc
000002f0: 3e4f 7bbc a537 013d ad51 89bd 3756 173c
00000300: ede8 e1bc 0773 28bd 2e8b 95bc f539 2f3d
00000310: e942 9c3c e13c 15bc 78c4 dd3a 4652 5bbd
00000320: 7d5c eaba 959c 48bd 40ff 643d 5b83 673d
00000330: 6428 713c 86db 6dbd 7d96 c53c 39a7 023c
00000340: d06c d8bc 1670 263d 88f7 8bbc f31b 7bbd
00000350: 64a8 11bd a7bf 2fbd e267 fcbc e202 3dbd
00000360: aa07 283d e7df 193d 9495 c8bc da3a 0c3c
00000370: 83f5 083d b2db ac3c e06d 6dbb 160c d23c
00000380: b4c0 8d3c 82db 6b3d 1ce0 003d f481 133c
00000390: 0df4 79bd 59cd 55bc c0b6 2d3d c83b d53c
000003a0: e6a0 283d 51d6 ccbc 349e 6a3d 7fe8 88bc
000003b0: c784 043d 7c9a 21bc 09b1 0dbd fc56 fc3c
000003c0: f4a9 84bd 1990 c63a 3e4d acbc bd31 0f3d
000003d0: 0a71 fe3c ecfb 3bbb 76ba bd3c ed89 163d
000003e0: 0c36 4e3d f5ba 4abd 97a7 1fbd 916f 4ebd
000003f0: 279c 2abd 176b 0cbc 7db0 45bb f902 af3c
-0.025677398 0.0064124777 -0.022537222 0.034480304 0.0047203354 0.06556866 -0.0407236 -0.0185311
-0.0011714089 0.023167206 -0.04989473 -0.029200198 0.004818225 -0.034454975 -0.03549475 0.01196768
-0.01086904 -0.060114622 -0.026312834 0.03587568 0.059377298 -0.0006004037 -0.04712296 -0.037671432
-0.05158714 0.021939341 0.036309395 0.03724545 -0.021490572 0.026822984 -0.0064011244 -0.0013021099
-0.023869013 -0.00048809723 -0.01783242 0.0013804295 -0.021418063 0.017047511 0.039444953 -0.03941584
-0.026134377 -0.032583714 0.04853695 0.013367328 0.050407622 -0.057034627 -0.03226548 -0.028728424
0.03170238 0.04469385 0.05118785 0.03146394 0.03131799 0.008585157 0.018865533 -0.049029574
0.024041586 -0.02512697 0.028220778 0.061443012 0.024361977 0.009697383 -0.026962787 0.047885355
0.007704014 0.04778422 -0.028382884 -0.023018353 0.050190303 -0.030666241 -0.04644018 0.031623628
0.015919184 -0.045951474 0.048998866 0.007892056 0.028736986 0.043928165 0.032394536 -0.038291488
0.0013589321 0.009229233 -0.016859561 -0.0013990056 -0.005487765 0.06042543 0.011934535 -0.007241406
-0.012033025 0.040394258 0.062308986 -0.059063878 -0.018625967 0.027890231 0.0061394824 -0.047331754
0.0477195 -0.0012242995 0.024158582 -0.039858423 -0.05639136 0.023709513 -0.0448789 0.015847852
-0.066215664 -0.024263494 0.017158493 0.023338832 -0.020895775 -0.013342338 -0.010509954 0.0017792067
0.034220267 -0.0018787954 -0.049268167 0.04332166 0.032732144 -0.047601208 0.05704746 -0.043062862
0.0012746217 -0.021893198 -0.0012126219 -0.00781365 0.059062343 -0.03224096 0.02017522 -0.00885693
-0.030511664 -0.0047569084 -0.04870648 -0.029641483 -0.029614482 -0.0058060004 0.06385607 -0.057827666
-0.009606272 -0.018479625 -0.055751488 0.007568877 -0.008541304 0.06342894 0.046635635 -0.03465236
-0.01733006 -0.022822304 0.032243002 0.028350376 -0.04329989 -0.030473959 -0.04573826 0.047328517
-0.018062446 -0.064172424 0.03826523 0.02956024 0.035849787 0.02181059 -0.058090366 0.021262277
0.039650276 0.03790329 -0.024418369 0.02899255 0.008512679 0.026921814 -0.054903485 -0.03210407
-0.034954127 -0.017788881 0.04363046 -0.042231284 0.018546222 -0.02486898 0.052945264 0.02872693
-0.011783498 0.03819572 0.013044249 -0.03395432 0.039982166 -0.025166083 0.049838226 -0.008405346
-0.022629533 0.05185707 0.031283714 -0.013092186 -0.015338717 0.031547207 -0.067050315 0.009236864
-0.027576888 -0.041125324 -0.018254843 0.04277988 0.019074874 -0.009108753 0.0016919514 -0.05354526
-0.0017880347 -0.048977453 0.055907488 0.056521755 0.0147191025 -0.058070682 0.02411961 0.007974439
-0.026419073 0.040634237 -0.017085806 -0.06130595 -0.03556098 -0.042907383 -0.030811254 -0.046145327
0.041022934 0.037567046 -0.024485387 0.008558953 0.033437263 0.021100853 -0.003622882 0.025640529
0.017303802 0.057582386 0.031463727 0.009003151 -0.06102376 -0.013049447 0.042410612 0.026029482
0.04116907 -0.025004538 0.05727978 -0.016712425 0.03235319 -0.009863492 -0.034592662 0.030803196
-0.064777285 0.0015149146 -0.021032926 0.034959543 0.03105976 -0.0028684093 0.0231602 0.03675263
0.050344512 -0.049494702 -0.038978186 -0.050399367 -0.041652825 -0.008570454 -0.003016501 0.021363722

lin.weight f4 [1, 64]
00000000: cd5c 19bd d3dd 0abc dd1e d7bc 6d14 703c
00000010: 22c7 b5bb ad13 123d 4b76 1e3c ca0c 7d3c
00000020: f4a2 543c bbf1 12bd 2b9b b03c d4aa 433d
00000030: 05fe ce3c 6aad 4b3d e241 813c 14e2 163d
00000040: 7b9e 2a3d db07 903c 702a ea3c b1bf 683c
00000050: 669a 043d 60c3 8c3c e50e f7bb f421 94bb
00000060: 8548 1c3d a02a 053d 6f9f 103d ccb9 073d
00000070: 8585 a73c 8ca6 2d3d 0f6e 7c3c fd3f 84bc
00000080: e552 a5bb 126a a73c d470 fe3c ebeb 05bc
00000090: adca 21bc 0505 673c 4834 2a3d b990 503b
000000a0: fa0e b1bc 01d6 ea3c 08a3 31bd dfd2 293d
000000b0: f05b 4f3d 285f 303b 1156 773c f1da 463d
000000c0: b88f 7dbb 6f4f 8cbb ada8 503c 3666 89bb
000000d0: 7e87 94bb e12d adbc 1747 203d a533 a93c
000000e0: 8a9d d53c c7fe adbb 79fb ce3c 7dfe 883c
000000f0: 2844 fe3c e089 f63b 1558 de3c 6515 1b3d
-0.037442017 -0.008475739 -0.026259834 0.014653307 -0.00554742 0.035663296 0.009671758 0.015444944
0.012978304 -0.035875063 0.021558365 0.047770336 0.02526761 0.049725927 0.015778486 0.0368367
0.041655045 0.01758187 0.028584689 0.014205859 0.03237381 0.017183006 -0.0075396174 -0.004520649
0.038155098 0.032511353 0.035308298 0.033136174 0.02044941 0.04239516 0.015407099 -0.016143793
-0.005045282 0.02043632 0.03105966 -0.008173923 -0.009874982 0.014100318 0.041553766 0.0031824543
-0.021613587 0.028666498 -0.04336837 0.041460868 0.050624788 0.0026912186 0.015096203 0.048548643
-0.00386904 -0.00428193 0.012735528 -0.0041930927 -0.0045327535 -0.02114004 0.039130297 0.020654509
0.026076097 -0.005309913 0.025266396 0.016722912 0.031038359 0.00752376 0.02714161 0.0378622
